pretrained/FireNet+/model.pth (torch_old, 622707 bytes, 92 tensors)

head.conv2d.weight f4 [16, 5, 3, 3]
000000 49 92 38 be c5 78 57 3d 4a 99 f9 bc da 7f 8d 3d
       -0.18024553 0.05260541 -0.030468602 0.069091514
000010 56 d7 80 bd f7 cf 0b bd 91 17 44 bd f8 51 12 bd
       -0.06291072 -0.034133878 -0.047874037 -0.035722703
000020 99 49 e6 bd 88 8d 55 3d 8b 8e 8f bd 3b 26 5b 3d
       -0.112445064 0.052136928 -0.0700961 0.053503256
000030 2d 59 50 bd 1d 9c 87 3d 2e 31 e2 bd 5a e3 64 3d
       -0.050866295 0.06621573 -0.110445365 0.05588088
000040 e6 ef 2d bd 3b 42 f9 3d 95 34 24 bc 4d 8a 57 bc
       -0.042465113 0.121708356 -0.010022302 -0.013155532
000050 6e 37 cd 3d ec 9e f4 bd 59 f1 d9 bd 8e d8 6e bc
       0.10020338 -0.119443744 -0.106417365 -0.014577998
000060 e4 09 60 bd 5d 2f 37 bd 50 28 fd bd 7f 5b 05 be
       -0.054696932 -0.044722904 -0.123612046 -0.13023184
000070 51 b7 81 3d 37 43 c9 3d fe 4f fa bc f0 f3 9b bd
       0.06333793 0.09827273 -0.030555721 -0.07614887
000080 e4 b9 c1 3d 5c e4 39 be 3e a3 a5 bd fe 9c b3 3b
       0.09459284 -0.18153518 -0.080877766 0.0054813614
000090 79 db 5f 3e 55 a3 04 3c 91 61 bd be 66 e7 02 3f
       0.21861066 0.008095582 -0.369885 0.51134336
0000a0 85 5d e4 3e 92 44 c0 3d 83 1a b1 3e e2 a7 a8 3e
       0.446026 0.09388079 0.3459054 0.32940584
0000b0 15 5a 12 3e b8 a6 df bc 1b 77 2c bd 07 c6 6d bc
       0.14292176 -0.027301177 -0.042105775 -0.014512545
0000c0 6e 9f 00 3d 35 c2 21 bd 7e 53 5a bd 9b 3d a4 3c
       0.031402044 -0.03949185 -0.05330228 0.020048907
0000d0 d4 a6 7e 3c 6d eb 52 39 79 d9 52 bd d4 40 a0 bd
       0.015542705 0.00020114864 -0.05147693 -0.07824865
0000e0 e0 77 0c bd 8e 84 f5 3c 6d 39 b4 bd dc ed da bd
       -0.03429401 0.029970434 -0.088000156 -0.10689899
0000f0 c8 9c 7e 3d f9 b2 7d 3d f9 60 db bd 21 0e 82 3c
       0.062161237 0.06193826 -0.107118554 0.015875878
000100 66 ad 58 bd f7 17 ab 3c ac c8 cb 3c a6 b0 17 3d
       -0.05289974 0.02088545 0.024875961 0.0370337
000110 7a d6 dc bb c4 8c e1 3d f5 65 c5 3d 6d 11 71 3d
       -0.006739435 0.11013177 0.096385874 0.05885451
000120 7c b2 17 bc 0f 8d 21 bd 0c 1b 48 3d df 23 db 3b
       -0.009258863 -0.039441165 0.04885392 0.006687626
000130 d0 a3 09 3e c5 d3 af bd b3 34 b7 3d d9 4c 7a 3d
       0.13441396 -0.08585314 0.089455985 0.061108444
000140 2b 80 a5 b9 78 9d 71 bd 2c 1f b5 bd 2d e9 fa 3c
       -0.00031566745 -0.058988065 -0.08843836 0.030628765
000150 fc 96 a1 bc fd 0a 68 3d 3c 8a 4f bd 4e 4c f1 3d
       -0.019725315 0.056651104 -0.05066894 0.11782132
000160 c8 32 7b 3d 99 6f 73 bc c7 28 78 bd 75 19 15 bc
       0.061327726 -0.01485815 -0.060585763 -0.009100308
000170 4d 60 a6 3c f1 b1 b8 bc 1d 3f 01 3c 71 e7 39 3d
       0.020309592 -0.022545787 0.007888583 0.045386735
000180 2c 2b 1b 3b 2c 0d b2 3c 3d e4 d3 3a 14 35 da bd
       0.0023676855 0.021734796 0.0016166043 -0.10654655
000190 d7 68 67 3d 8c b9 3a bd e0 4c be 3c 0e d2 b7 3d
       0.056496467 -0.045587108 0.023230016 0.089756116
0001a0 35 c9 b5 3d ea d1 c1 bc 7c bb 12 3d 67 86 40 3d
       0.08876268 -0.023659665 0.03582333 0.047003176
0001b0 ef 82 50 bd d1 5a 44 bd 54 b5 4d 3c 22 44 bc bd
       -0.050906118 -0.04793817 0.012555439 -0.09192683
0001c0 2f 56 39 3c 07 fd 0e bd 37 de 06 bd db 29 52 bc
       0.011312052 -0.034909274 -0.032926764 -0.012827362
0001d0 ce 33 a8 bd 85 31 ad bd ca 4c c4 bc 30 12 15 3d
       -0.08213006 -0.08456711 -0.023962397 0.036394298
0001e0 e3 a9 75 bd 60 0b 0a 3c 0f cb 63 3d b3 e2 e6 bc
       -0.05997647 0.008425564 0.055613574 -0.02818427
0001f0 2c 64 83 3d 1a b7 af bd 26 9e 41 be 65 70 b8 3d
       0.06415591 -0.08579846 -0.18907985 0.090058126
000200 aa d3 d1 3c 10 e0 91 bd bf 75 cc 3c 57 16 ee 3c
       0.025613625 -0.07122815 0.02495849 0.029063387
000210 ed 4c 87 bd 5b 35 ec bd c4 3c 08 be 48 65 e4 bd
       -0.06606469 -0.11533614 -0.1330443 -0.1115213
000220 0f eb 28 3e 0c bd 34 be d7 c3 1b bd 75 f1 bc 3d
       0.16495918 -0.1765024 -0.038028564 0.09225742
000230 de dd dd bd 58 60 15 be 3f c8 8f bd a9 a6 38 3e
       -0.108333334 -0.14587533 -0.07020616 0.18032326
000240 6c 46 01 be 30 2d 45 be 91 62 a8 bd 1b e3 2e be
       -0.1262452 -0.19255519 -0.08221925 -0.17078821
000250 b4 13 cd bd a6 0e 07 be 98 9f fa bd 0a 55 a3 bc
       -0.10013524 -0.13189182 -0.12237471 -0.01993801
000260 e3 ad 09 be af 27 2f 3e e5 73 93 bd c5 e6 03 3c
       -0.13445239 0.17104982 -0.071998395 0.008050625
000270 15 87 e9 bd 6b aa 69 3e bc df 83 3b e2 09 23 3e
       -0.11402718 0.22818916 0.004024474 0.15921739
000280 ff 73 42 bd 88 15 04 3e f6 39 fa 3d 8e d5 9b 3e
       -0.047473904 0.12898839 0.122180864 0.30436367
000290 5f 11 30 3e 32 97 ba 3e 4b 0e 2d 3e 60 8b 3f 3e
       0.17194127 0.36443478 0.16899984 0.18705511
0002a0 14 14 70 3e a2 2d 57 3e 9d 49 7a 3d 8b 04 43 bd
       0.23445159 0.21013501 0.06110536 -0.047611754
0002b0 96 ee 2b 3e 1e 5c 2b 3d 78 e7 c4 bd d1 18 27 be
       0.16790232 0.041835897 -0.09614462 -0.1631806
0002c0 94 1e 69 bd ed c3 2b be cb 51 6e bd 78 91 b3 bc
       -0.056913927 -0.16773959 -0.058183473 -0.02191995
0002d0 b6 ba 73 be 72 da 9d be f8 9e 57 3d 33 25 94 bd
       -0.23801693 -0.30830723 0.05264184 -0.07233658
0002e0 d0 d2 36 3d c1 b3 65 be 15 3c 01 be 68 ed 87 3c
       0.04463464 -0.22431852 -0.12620576 0.016592696
0002f0 2c 89 78 3b 4d d7 73 be e6 a2 c1 be 16 f7 31 bc
       0.0037923558 -0.238126 -0.37819594 -0.010862133
000300 5a 70 b3 3c 2b 73 e0 3d ba 55 3e be c0 b5 18 be
       0.02190416 0.109594665 -0.1858739 -0.14913082
000310 23 60 f3 3c 29 81 b8 bc e2 77 d2 3c 2a a0 83 bd
       0.029708927 -0.022522526 0.02569193 -0.06427033
000320 35 bb 83 bc dc 1c 15 ba d4 dd 8f 3d 3b e0 fb 3c
       -0.016080478 -0.00056881993 0.07024732 0.03074657
000330 64 8a ab bc 10 fb f1 3b 15 be e3 bc a2 74 d5 3c
       -0.020940013 0.0073846653 -0.0278006 0.026056591
000340 3f e8 1d 3d f5 b0 31 bc 88 41 10 bd 69 57 aa be
       0.038551565 -0.0108454125 -0.035218745 -0.33269814
000350 f2 8e 09 3d 75 3b 90 bc 7e fe 9a bc 5e c2 d1 ba
       0.03358359 -0.017606476 -0.01892018 -0.001600336
000360 05 a2 07 3d 21 c4 90 3d fb ab c9 b9 00 a7 c6 3c
       0.0331135 0.070686586 -0.00038465843 0.024249554
000370 21 04 85 be c3 8f 6d bc b1 53 19 3b 13 de 2f bc
       -0.25979713 -0.0144996075 0.0023395831 -0.010734099
000380 00 dd 4f bb 7f 4c 12 be 6a 4f 59 bd 6f 58 d2 bd
       -0.003171742 -0.14286993 -0.05305425 -0.102707736
000390 b8 44 42 3e c8 8f ca bb 4e 10 d0 3d 87 9e 50 bd
       0.18971527 -0.006181691 0.1015936 -0.050932433
0003a0 29 73 3f be 37 41 a6 3d ec 14 9f bd e0 01 63 be
       -0.18696274 0.081179075 -0.077676624 -0.22168684
0003b0 94 4e f8 3d 10 7e 0a 3e a4 7a 89 be c5 81 6a 3e
       0.121243626 0.13524652 -0.2685138 0.22901066
0003c0 0a fc 24 bc 34 a1 5d be a9 8d 02 be 86 f6 47 3e
       -0.010069856 -0.21643525 -0.12749352 0.19527635
0003d0 29 b0 59 be ff ee a2 3d d4 da 81 be 1c 9f aa be
       -0.21258606 0.07955741 -0.25362265 -0.33324516
0003e0 aa eb b6 3d 1e f8 b3 3d 28 c8 94 3d aa 0e 5d be
       0.08931668 0.08787559 0.07264739 -0.21587625
0003f0 6a 9d 3b 3e 16 b1 d3 bd b1 36 c1 3d de d4 b1 bd
       0.18321767 -0.10336511 0.0943426 -0.08683179

head.conv2d.bias f4 [16]
000000 e1 44 16 be 63 0c 11 3e 44 b9 1a 3e 19 e4 09 be
       -0.14674713 0.14164881 0.15109736 -0.13465919
000010 95 28 0d be 7c f9 84 bd a4 fe 65 be 96 fc 87 be
       -0.13785012 -0.06492898 -0.22460419 -0.26559895
000020 67 1a 17 be a2 ba 47 be 86 e0 bb 3d 8d f1 bf 3a
       -0.14756165 -0.19504789 0.09173684 0.0014644131
000030 24 53 03 be ff 99 67 be 4c fb f5 bc 71 1e 44 be
       -0.12824684 -0.22617339 -0.030027054 -0.19152237

G1.reset_gate.weight f4 [16, 32, 3, 3]
000000 98 b7 6a 3d 84 ea f0 bd 8e e9 94 be a7 07 69 3e
       0.057303995 -0.1176348 -0.29084438 0.22756825
000010 1b 9e 17 be 80 1a 87 be b2 94 ae 3e ac 17 43 3e
       -0.14806406 -0.26387405 0.3409782 0.19051999
000020 db a0 59 bd f8 53 c1 bb c4 fa 2d bd 90 b1 e0 3c
       -0.05313192 -0.0058999024 -0.042475477 0.027428418
000030 9d 54 9c bd 65 f4 02 be 41 bd a5 bd 2c 99 14 bc
       -0.07633326 -0.12788542 -0.08092738 -0.009069722
000040 4f 10 76 3d 5b 55 c1 bd 23 f7 8f bd c2 bb 92 3c
       0.060074147 -0.094401084 -0.070295595 0.017911796
000050 ec 44 b2 3c de 82 d8 3d e8 63 1e 3c 4f 7a 5e bd
       0.02176138 0.10571836 0.009667374 -0.05431586
000060 f1 24 c8 bd 06 dd 00 be 53 e4 36 bc a5 a7 16 3d
       -0.09772671 -0.12584314 -0.011162835 0.036780972
000070 29 51 92 3a 7b c6 1a be 41 23 30 3e ab 79 7c 3d
       0.0011163104 -0.15114777 0.17200948 0.06163947
000080 34 7c 09 bd 98 84 e1 bd 1c dc de bd 47 e7 8b be
       -0.033565715 -0.110116184 -0.10881826 -0.27324888
000090 ae 23 a2 bc 0d 8f a0 bb 3c 72 1a be 50 eb 57 be
       -0.019792404 -0.0048998655 -0.1508264 -0.21085858
0000a0 ad ab ed bd cc 4c 06 be d5 7a 62 be 33 7e b3 be
       -0.1160501 -0.13115233 -0.22117169 -0.3505722
0000b0 03 92 58 be 2b 3e a0 bd a1 6f 78 be 6a fd 35 be
       -0.21149449 -0.078243576 -0.24261333 -0.17772451
0000c0 a6 23 0a bd 6f 47 99 be be 17 3b be 42 63 55 bd
       -0.033725403 -0.29937312 -0.18270776 -0.052096613
0000d0 b4 de 76 be 47 02 3c be 6d 82 98 bb 63 98 a5 3e
       -0.24108392 -0.18360244 -0.00465422 0.32342824
0000e0 b3 5d 86 be e3 fb 08 3e 31 ab eb 3e ca e2 38 3d
       -0.26243362 0.13377337 0.46029046 0.045138158
0000f0 cc 30 25 3c be 55 8f 3d d9 61 4f be 8c f4 11 be
       0.010082435 0.06998776 -0.2025217 -0.14253443
000100 1b b0 30 be bb 65 51 be bd 9f 9c be 24 57 8b be
       -0.17254679 -0.20448963 -0.3059062 -0.2721492
000110 f3 0c a3 be 2c db c6 be 55 60 c5 be 4f 14 54 be
       -0.31845817 -0.3883909 -0.38550058 -0.20710872
000120 fe 70 9a be 58 40 08 3e 31 1a 85 be 27 d7 26 3e
       -0.3016433 0.13305795 -0.25996545 0.16293012
000130 30 8c d7 3e 7e 2c 2b 3a a9 ca c2 bc d3 2c 85 3e
       0.42099142 0.0006529762 -0.023778277 0.2601076
000140 91 dc 56 be 09 23 d7 bd 3f 29 c1 bc 6f b7 74 bd
       -0.20982577 -0.10504729 -0.023579238 -0.05974525
000150 e8 3f a7 be cb 29 21 be 4e 8e 96 be 2c d0 f9 be
       -0.32665944 -0.15738599 -0.29405445 -0.48791635
000160 f7 bc b4 be 26 32 4e be b0 79 8b bc 1c 01 44 3c
       -0.3530042 -0.20136318 -0.017025799 0.011963155
000170 aa 30 8b bd ac 0d fe bd 0a 5d be 3c 29 38 ac bd
       -0.06796391 -0.124049515 0.023237724 -0.08409149
000180 29 b1 dd bd d6 e9 f0 bc 6b 3a c7 3d 0a b3 90 bd
       -0.10824806 -0.029408377 0.09727939 -0.07065399
000190 b1 a8 1b 3e ff dd e5 3d 46 72 77 be 0e 73 1c 3d
       0.1520107 0.11223983 -0.24164686 0.038195662
0001a0 a4 9f c0 bc 57 8d bd be 81 0e 66 be 03 e2 99 be
       -0.023513623 -0.37021896 -0.2246647 -0.30055246
0001b0 7f 4e 89 bd 99 45 6c be 03 44 4f be 4b 30 ae bd
       -0.06704425 -0.23073424 -0.20240788 -0.08505305
0001c0 78 ea 5c 3e 4e 16 60 3e 46 13 17 bd ce a7 91 bd
       0.21573818 0.21883509 -0.036883615 -0.07112084
0001d0 c8 04 cf 3d d2 fd 24 3d c7 bc 9a 3d f4 03 bd be
       0.10108334 0.040281124 0.07555538 -0.36917078
0001e0 76 e5 d7 3d 19 ad bb 3e a5 02 de 3b 58 76 40 bc
       0.10541813 0.366555 0.0067752176 -0.011746965
0001f0 e9 4b aa 3d 51 50 cf be fd 4e 19 be 71 3a d0 bd
       0.0831526 -0.40490964 -0.14971538 -0.10167397
000200 8f 2a dd bc 3e c8 08 be 26 41 23 3e f0 8f cd 3d
       -0.026997833 -0.13357636 0.15942821 0.100372195
000210 99 6d 34 be 3d 31 4f 3e 2d f8 59 3e c0 e5 92 bd
       -0.17619933 0.20233627 0.21286078 -0.071727276
000220 a2 d4 ad 3d bd 1e 37 3d 1f 91 12 bd cc 23 2a bd
       0.08487822 0.04470705 -0.03578293 -0.041538045
000230 2d cd 0c be c2 fb b4 3b 8b 4d 39 be 8f 83 d6 be
       -0.13750143 0.005523176 -0.18095987 -0.41897246
000240 88 50 00 bd 23 01 24 bc b4 cd b3 3b f0 bb 0c bd
       -0.0313268 -0.010010037 0.005487168 -0.03435892
000250 92 d6 2c bd 45 d0 44 3d 06 d4 a3 3d 43 d2 c4 3c
       -0.042196818 0.048050184 0.07999425 0.024026042
000260 cc eb 83 3b 50 4e 82 bd 2d 8f 10 bd e6 cd fe bd
       0.004025912 -0.06362593 -0.035292793 -0.12441616
000270 39 43 a3 3c d2 9d 21 3d 6f 79 08 be bd 1f 1f bc
       0.019929515 0.03945715 -0.13327573 -0.009712157
000280 c1 c6 22 be c0 d7 c0 bd 5a 46 af 3c de d8 e6 3d
       -0.15896131 -0.09416151 0.02139585 0.11271833
000290 4b 44 78 3c 71 4a 6b 3d ec 73 c3 3d 01 e6 9b 3c
       0.015153001 0.05744404 0.09543595 0.019030573
0002a0 8f 6d 12 3d 98 b3 c1 3b 34 47 3b bc f3 11 42 3d
       0.035749014 0.005911302 -0.01143055 0.0473804
0002b0 8c 26 33 3d 8d 5e 47 bc 98 10 70 bd 61 23 f6 bb
       0.043737933 -0.012168539 -0.058609575 -0.0075115417
0002c0 54 fc ef 3c ad df 6c 3c 91 15 ec 3c ef 4a 6d bc
       0.029295124 0.014457625 0.028818877 -0.014483198
0002d0 90 9f c6 bc 5d 00 2d 3d 0c e2 30 3b d9 5a 7b bc
       -0.024246007 0.042236675 0.0026990203 -0.015341484
0002e0 3b 7f f4 bd af dc c9 bd 2a 77 1f bd 30 1e 15 bd
       -0.1193833 -0.09856545 -0.038932003 -0.036405742
0002f0 45 d2 82 bc 1d 30 90 3d b7 4b 69 ba 37 55 c1 3d
       -0.015969405 0.07040427 -0.0008899527 0.094400816
000300 10 b1 17 3e 89 17 4c 3d 65 88 fc 3c 66 42 bf 3d
       0.14813638 0.049827132 0.030826757 0.09338836
000310 5d 49 cc 3d e0 1b da 3d b5 5d 5d 3d 41 ff 1c bd
       0.099749304 0.10649848 0.054044444 -0.038329367
000320 df 97 b0 3c 73 4e 57 bd 4c cf ff 3d 94 95 86 3d
       0.021556793 -0.05256505 0.124907106 0.065714985
000330 72 d9 7c bc 8a f6 47 3e c8 a8 bd 3d 96 e1 48 bd
       -0.015432702 0.19527641 0.09260708 -0.04904326
000340 27 54 ae bd 72 64 b3 bd 71 25 02 3d ec af 41 3b
       -0.085121445 -0.08759393 0.03177399 0.002955432
000350 24 59 f8 3d af 49 b8 ba ec 8c 08 3d 5f cf 8b 3d
       0.12126377 -0.0014060045 0.03333752 0.06826662
000360 e7 f7 4c bd 02 b1 a0 bd 20 d6 b0 bd 54 d4 35 bd
       -0.050041106 -0.078462616 -0.08634591 -0.044391945
000370 b6 25 ce bc d1 28 85 bd 1c 46 ed bd a5 bd 94 bc
       -0.025164466 -0.06501926 -0.11585638 -0.018156836
000380 19 d5 04 bc 7c 4b ea 3d 5b 97 c4 3d 26 97 c4 3c
       -0.008107447 0.11440179 0.09599181 0.023997854
000390 a2 67 4f 3e 8f 4e fd bc 9d c4 2f bd 02 e8 54 3e
       0.20254377 -0.030921249 -0.042912114 0.20791629
0003a0 f3 ef 3b 3e 26 4b 8c 3d a4 96 8b 3d 1c 9a 99 3d
       0.18353252 0.06850271 0.06815842 0.07500097
0003b0 f5 da ba bd 71 a5 6c 3d cf 09 a7 bd b4 87 4c bd
       -0.09123794 0.057774965 -0.08156168 -0.049934104
0003c0 15 05 10 be 67 e7 ad bd 20 62 93 3c 52 45 b4 bc
       -0.14064439 -0.08491402 0.017991126 -0.02200571
0003d0 95 eb f7 bc 0b 4e ff 3a 60 81 8d bd 75 35 4f 3d
       -0.030263701 0.0019478215 -0.06909442 0.05058809
0003e0 82 32 07 3e 46 e5 55 3b 4f f9 14 bd 3e fb 3b 3e
       0.13202861 0.0032637878 -0.03637057 0.1835756
0003f0 ce 30 cf 3a 6a 10 17 bd 5d 3b 72 3d 99 b3 16 be
       0.0015807392 -0.036880888 0.059138644 -0.14716949

G1.reset_gate.bias f4 [16]
000000 ea dd 0e bd ed e2 f3 3d 32 da 76 bc ea 21 37 bd
       -0.034879602 0.11908517 -0.01506667 -0.044710077
000010 87 99 83 bb c5 10 00 bc 82 f6 c2 bd 21 f1 15 3d
       -0.0040161046 -0.007816498 -0.09519674 0.03660691
000020 93 fd 30 3b ef c5 40 bd ab ea ad 3a a2 69 84 3c
       0.002700661 -0.047063764 0.0013268789 0.01616365
000030 2e d6 e7 3c 28 72 93 3d c9 f4 d3 3b 1c 92 be bc
       0.028300371 0.07199508 0.0064683896 -0.02326303

G1.update_gate.weight f4 [16, 32, 3, 3]
000000 7d a5 52 3e b2 4e d7 bd 76 fc bd bd e4 15 d5 3d
       0.20570941 -0.10513057 -0.09276669 0.10404566
000010 f8 26 96 bd 72 ac 8a 3d 1e 25 ad 3e 1b f1 fe 3d
       -0.073316514 0.067711726 0.3381738 0.12448331
000020 9e 7f 67 3e ba 89 0a bd 40 96 c5 3d 0f d1 33 3e
       0.22607276 -0.033822753 0.096477985 0.17560218
000030 de b4 28 be ba b4 14 bd 25 4b 63 3e c7 e4 21 bd
       -0.16475245 -0.036305167 0.22196634 -0.03952482
000040 05 54 74 bc 03 e3 7b bc 71 1b ba 3d 0c 63 48 bd
       -0.01491261 -0.015373948 0.09087265 -0.048922583
000050 e1 21 eb bc 0a 82 b6 bc 1b 75 92 bc 75 b0 d7 bd
       -0.028702678 -0.022278804 -0.017878106 -0.105317034
000060 d2 57 69 3e 4c c7 1e 3d fc 77 1e 3c b2 7f 15 3e
       0.22787407 0.038764283 0.009672161 0.14599493
000070 07 e3 c0 3d 25 ff f0 3c 0a e9 16 3d 99 73 59 3e
       0.09418302 0.029418537 0.036843337 0.21235503
000080 02 4b 27 3e 88 88 46 3d 47 40 0c 3e e8 3d 0e 3e
       0.16337207 0.04847005 0.13696395 0.13890803
000090 bc e6 0b 3d 58 fc 75 3d bb 20 e1 3d 97 eb ac 3d
       0.034155592 0.060055107 0.10992571 0.08443373
0000a0 cd 3a 4b 3d 34 84 3d 3e 64 32 b3 3d 04 8b 90 3d
       0.049616624 0.18507463 0.087498456 0.07057765
0000b0 59 c2 13 3e 10 db 4b 3e fd ec 05 3e 58 89 7f 3e
       0.14429606 0.19907784 0.13078685 0.24954736
0000c0 41 32 27 be 96 1d bd bc be 6f 29 3d f2 52 9f 3e
       -0.16327764 -0.023085397 0.04136633 0.3111797
0000d0 5f 94 85 3e ef d3 92 3e 47 b6 57 be 20 ff 67 3d
       0.2608976 0.28677318 -0.21065627 0.05663979
0000e0 73 ca 0d be 87 9e 8f bd e9 63 5e 3e b0 a7 ae 3d
       -0.1384676 -0.070126586 0.217178 0.085280776
0000f0 1b b7 7d 3c 5b 7c 5e 3e 73 65 0f bd f9 d8 f9 3d
       0.01548555 0.21727125 -0.03500886 0.121995874
000100 b3 f1 ef 3c 89 22 1b 3e c5 6f 53 3e 9e 66 96 3e
       0.029290056 0.15149893 0.20648105 0.29375166
000110 0d e3 9c 3e 9e 0d 8e 3d 61 0d a4 3e 71 78 77 3e
       0.30641976 0.06936191 0.32041457 0.24167039
000120 cb 32 43 3d a2 3b 8c 3d bf d0 66 3e 82 54 ba 3e
       0.04765586 0.068473116 0.22540568 0.363926
000130 0d dc 11 3e 34 26 6b 3e f8 61 f1 3e 58 c4 bd 3d
       0.14244099 0.22963792 0.47145057 0.09265965
000140 ee 42 98 3e 26 e2 6a 3e 48 d6 e7 3e 1b 26 42 3e
       0.29738563 0.22937831 0.4528067 0.18959849
000150 97 7d 43 3c 08 62 87 3e 58 6c ca 3d b9 cf 81 be
       0.011931798 0.2644198 0.09883946 -0.25353792
000160 1a 71 c8 3d 1d cc ac bd 14 9f 5f 3d b9 f7 8b 3b
       0.097871974 -0.08437369 0.054595068 0.004271474
000170 89 e0 fa 3d 3f e9 95 3d 69 f7 5b bc ff 74 b2 bb
       0.12249858 0.07319879 -0.013425686 -0.005446076
000180 a7 f8 4a bd 9a a2 8d 3d 2d 1f 01 bd 00 49 3e 3f
       -0.04955354 0.069157794 -0.031523872 0.7433014
000190 19 5c 57 3f b1 7b 37 3e 61 e0 ea 3e 6d 3e 1e 3f
       0.84124905 0.17918278 0.45874313 0.61814004
0001a0 a8 10 0c 3e 85 3e ef be 4d 6b 6e bd da 05 03 be
       0.13678229 -0.46727386 -0.0582078 -0.12795201
0001b0 5b 33 d8 3d 3e cb 82 3e f8 61 82 3d db 1c d1 3e
       0.1055667 0.25545686 0.06366342 0.40842327
0001c0 25 e4 15 3f 53 a3 86 3e 7d 7f 3f be 3a 83 96 3e
       0.58551246 0.26296481 -0.18700977 0.29396993
0001d0 51 fe a3 bc 90 28 52 be 2d 31 3f bd 4c 85 73 be
       -0.020018728 -0.20523286 -0.046677757 -0.23781317
0001e0 c8 d7 d9 3d 9f 41 26 3e 70 52 72 3d 8d 43 5e 3e
       0.1063686 0.1623597 0.05916065 0.21705456
0001f0 6b 10 37 3e 1a 1b 47 bd 0f ac 11 bf 32 c0 fd be
       0.17877357 -0.04860983 -0.56903166 -0.49560696
000200 16 ba a7 be a8 84 5d be 57 47 ea 3d 4e a5 70 3d
       -0.3275916 -0.21632636 0.11439388 0.058751397
000210 3e 0e 0b bd 3d b3 c4 3d 8f f7 4d 3d a7 d7 fe 3e
       -0.03394913 0.096044995 0.05028492 0.49773905
000220 6e e0 bb bd 74 8c 07 be e6 79 e6 be 8a a7 99 be
       -0.09173666 -0.13237172 -0.45014876 -0.30010635
000230 ea 00 55 be ec 17 06 bf 59 ec bc be d8 f9 25 be
       -0.2080113 -0.5238025 -0.3689907 -0.16208589
000240 f5 b0 44 be c2 10 1e be 29 c4 c0 bd 47 e9 43 be
       -0.19208129 -0.1543608 -0.094124146 -0.19131957
000250 8f 51 19 be de a5 77 be 24 8b 5e bd d5 a3 b5 bc
       -0.14972518 -0.24184367 -0.054331914 -0.022172848
000260 eb 90 f7 bd 92 c5 d4 bd 11 8c 79 be 0e 30 5e be
       -0.12088188 -0.10389246 -0.24369837 -0.21698019
000270 1e e6 1b be 06 7a df bd c7 5e a1 bd 41 ac 4f be
       -0.15224501 -0.10911946 -0.078794055 -0.20280553
000280 9d 1d b4 bd 38 d2 07 be dc 24 a5 bd d8 a2 99 bc
       -0.08794711 -0.13263786 -0.08063671 -0.018754408
000290 a6 b3 2c be 8e 5f 9f 3d b9 62 a0 3e 8f de f8 3d
       -0.16865405 0.077818975 0.3132532 0.12151825
0002a0 a3 f2 90 3c 90 a0 f7 3d bb 82 26 3e ba 7e 81 bd
       0.017693823 0.12091172 0.16260807 -0.06322999
0002b0 7a ed 16 be cc 01 30 be 57 cc 20 3a 3e 79 65 be
       -0.14739028 -0.17188185 0.00061339646 -0.22409531
0002c0 ac 8b 0f bd 4e c2 e9 bd 31 a7 19 be b6 4a 3b bc
       -0.03504531 -0.11414014 -0.15005185 -0.011431387
0002d0 68 c8 92 3b 54 fa 28 be 12 c8 ec bb bf 0e 05 b9
       0.0044794567 -0.16501743 -0.0072259987 -0.00012689362
0002e0 8e 48 39 bd 19 02 7a bd 0a ff 3e 3d e1 ad b5 bd
       -0.04523521 -0.061037157 0.046629943 -0.088710554
0002f0 22 cd 07 3d f4 9c fe 3c 16 fe f0 bd b3 8a ff bc
       0.033154614 0.0310807 -0.11767213 -0.031194067
000300 9a 1d 98 bd fb 08 00 3c c2 63 2e bd 49 bc e3 bd
       -0.07427521 0.007814641 -0.042575605 -0.11119897
000310 a6 e5 9d bc 85 2a 64 bc ad e4 e9 bc b7 d5 f8 bd
       -0.019274544 -0.013926153 -0.028551424 -0.12150138
000320 1c a6 8c 3d 20 af 36 3d 5f f3 f9 bd 55 df be bd
       0.0686762 0.044600606 -0.122046225 -0.09319941
000330 f6 7d 75 bd 89 82 a2 bc 04 d8 a4 bd 3b b7 c5 bd
       -0.05993458 -0.019837635 -0.08049014 -0.09654089
000340 3b 44 71 3c 3c 63 9f 3d 11 09 3d 3d 5d 71 f9 bc
       0.01472574 0.07782599 0.046151225 -0.030449564
000350 72 66 4b 3d b8 68 ab bd 1d 80 21 be a5 f7 3d bd
       0.049658246 -0.08369583 -0.15771528 -0.04637875
000360 b9 2a 6c 3e 10 54 28 3e 0a e2 44 3e 37 bb 90 3e
       0.23063172 0.16438317 0.19226852 0.28267834
000370 d0 3c d6 3d a5 23 4d 3e 56 fe 62 3e d8 d6 b2 3e
       0.10460818 0.20033129 0.22167334 0.34929538
000380 05 fe 98 3e 18 aa b8 3e 4e 58 82 3e dc 55 b5 3e
       0.29881302 0.3606727 0.25457996 0.35417068
000390 11 de 80 3e 13 13 b0 3e 2f ad a0 3e 30 46 da 3e
       0.25169423 0.34389552 0.3138213 0.42631674
0003a0 a6 af cf 3e 58 4b d9 3e e1 1d c4 3b 7c c3 57 3d
       0.40563697 0.42440295 0.005985007 0.052676663
0003b0 d9 db 85 bd 9b 11 2b bd 17 cf c2 3c 3d ab 16 bd
       -0.06536073 -0.041764837 0.023780389 -0.0367844
0003c0 45 2c a9 bd 63 ac 17 bd 5a 6e 11 be 85 36 1b 3e
       -0.08260397 -0.037029635 -0.14202252 0.15157516
0003d0 09 b8 cf 3d a3 e5 68 3e 7b 81 c8 3d e6 f8 a3 3d
       0.10142524 0.2274385 0.097903214 0.08006458
0003e0 91 19 0f 3e 33 32 ff bc 91 97 e6 bc 0d da 72 3d
       0.13974597 -0.031151867 -0.028148444 0.05928998
0003f0 e9 a0 00 3d 13 3e 5f 3d b8 c6 9a 3d 8f 9d a6 bc
       0.031403456 0.054502558 0.07557434 -0.020338802

G1.update_gate.bias f4 [16]
000000 6d 7d 27 3d 68 27 0d 3f 4e 4e 0c bc bb 86 ae bd
       0.0408911 0.55138254 -0.008563591 -0.085217915
000010 3e 01 9e be 86 46 f9 bd 4e 41 92 be 0a 49 26 be
       -0.30860323 -0.121716544 -0.2856545 -0.162388
000020 c5 c5 d6 3e 47 0b d4 3d 50 9d 37 bd bd 08 30 3e
       0.4194776 0.103537135 -0.04482776 0.17190833
000030 f3 3f 3b 3d a9 65 c5 3c ba b4 fa 3e ea 95 dc 3d
       0.045715284 0.024096327 0.48966008 0.10770781

G1.out_gate.weight f4 [16, 32, 3, 3]
000000 9c d3 c7 3d 7c 80 82 3e cb 6b 2b 3e 4d 7d c3 bb
       0.09757158 0.2548865 0.16740339 -0.0059658648
000010 54 d9 f4 bc ae 9f ff 3d 7e c9 e4 3d 6a 7f f5 3c
       -0.029888786 0.12481628 0.11171244 0.029967982
000020 22 d8 d2 3d e8 15 f8 3c a5 40 10 bd 09 0e f9 bc
       0.1029513 0.030283883 -0.0352179 -0.0304022
000030 44 61 13 bd ac 24 46 3d dc ee 45 bd 7f ef 53 3c
       -0.03598143 0.048374817 -0.048323497 0.012935518
000040 2b 79 b0 bd 52 b1 30 bd 60 6f cc 3d 5e be 95 3d
       -0.08616861 -0.043137856 0.099821806 0.073117
000050 6a a3 d9 bd fd 9a f2 3c 06 fa b9 bc ad 4b cd bd
       -0.10626872 0.02961492 -0.022702228 -0.100242
000060 95 e9 83 bd d4 52 d1 3d a5 6a a2 3d 2e 58 98 3d
       -0.064410366 0.10220876 0.07930497 0.07438694
000070 ed b9 ac 3d a4 7a 17 bd 74 6f 83 3e 38 f5 8f 3d
       0.084339 -0.036982194 0.2567097 0.07029194
000080 0b 8b 16 3e 67 75 14 3e b4 75 07 3e e3 8d f8 3d
       0.14701478 0.1449791 0.13228494 0.12136438
000090 b7 85 27 bc 81 22 28 be f1 f4 0a 3e 68 85 13 3e
       -0.010224751 -0.16419412 0.1357 0.14406359
0000a0 70 58 44 3e e5 85 1a 3e 1b c1 f8 3d 56 3c 52 3d
       0.19174361 0.15090139 0.12146207 0.051327072
0000b0 c3 d5 1f bd ce 85 74 bc 98 57 48 3c 4c 35 2e bc
       -0.03902222 -0.01492448 0.012227915 -0.010632824
0000c0 98 8e 23 3d de 41 13 be 86 48 c6 ba 44 c6 72 bd
       0.03993091 -0.14380595 -0.0015127815 -0.059271112
0000d0 69 0e 77 3c d6 a6 23 3d 2b 6c ef 3d fb a3 d2 3d
       0.015079119 0.03995403 0.11690553 0.10285183
0000e0 23 4e 40 3e 54 4c 63 be 71 b0 58 be f4 3a 2d 3d
       0.18779807 -0.22197086 -0.21161057 0.04229255
0000f0 d7 bf f3 bb 03 ca 26 be 60 fe cb 3d 6b 06 20 3e
       -0.0074386406 -0.16287999 0.099606276 0.15627448
000100 9a 59 50 3e fc 58 0a 3e db b2 a7 bd ae 5f 2d be
       0.2034668 0.13510507 -0.08188411 -0.1693103
000110 29 e0 9b be fa 63 4c bc a6 f1 31 bc 6d fe 8c bd
       -0.30444458 -0.012475008 -0.010860836 -0.06884465
000120 c5 fa 13 bd 0a bb 7f 3c a7 15 78 3e c1 0f 98 bc
       -0.036127824 0.015608558 0.2422701 -0.0185622
000130 74 eb 7e be 58 c3 ae 3b e8 98 0f 3e ff c0 d5 bd
       -0.24894506 0.0053333454 0.14023173 -0.10437202
000140 a3 2d be 3d 2d c4 61 3c f1 01 56 bd b8 7d 07 3e
       0.09286048 0.013779682 -0.052247945 0.13231552
000150 24 0c 82 3e d2 20 78 3d 5f 2d 4e 3d 41 5b 1c 3e
       0.25399888 0.060578175 0.050336238 0.15269186
000160 1b 6b 4b bd 3a 98 28 bd 07 e1 b9 3c c4 0c 0e 3c
       -0.04966269 -0.0411608 0.02269031 0.008670036
000170 73 73 95 bd 5b 40 36 3d 56 84 8e bb e8 e9 05 bd
       -0.07297411 0.044494968 -0.0043492718 -0.032693774
000180 de 1a a6 3d fc 53 05 3e 26 c4 db 3c 81 ed 4b bc
       0.08110593 0.13020319 0.02682693 -0.012446762
000190 1c d4 c0 bd 99 62 ee bd af 9a 1a bd e6 19 65 bd
       -0.09415457 -0.116399 -0.037745174 -0.0559329
0001a0 21 9c 15 3c a3 82 50 3d 79 7f 08 be a5 0e 05 3c
       0.009131462 0.050905835 -0.13329877 0.008121167
0001b0 00 ce 2a 3e d9 e3 07 3d b2 76 de 3c d5 35 86 3e
       0.16680145 0.033176277 0.027156208 0.26212946
0001c0 76 6f f6 3d c0 c9 8d 3e d9 2f 07 3e 69 6f 83 3d
       0.12032978 0.27692986 0.13201846 0.06417734
0001d0 ad 81 05 3e dd fe f4 bc 01 c0 b5 3d ed 37 07 3e
       0.13037749 -0.029906685 0.088745125 0.13204928
0001e0 8e 35 20 be 9b 9f 10 be 71 7e 65 3c 95 b1 28 3e
       -0.1564543 -0.14123385 0.014007197 0.16473992
0001f0 c8 0b df 3d b9 73 dc 3d c6 e7 c8 bc f8 35 8e bd
       0.10890919 0.1076426 -0.02452458 -0.069438875
000200 25 2c 07 be fb 19 e4 3c 92 92 93 bd 50 c9 ee bd
       -0.13200434 0.02784442 -0.072056904 -0.11659491
000210 65 0b 1f bd 00 09 55 bd 21 84 8c 3c be 81 2f be
       -0.038829226 -0.052010536 0.017152848 -0.17139336
000220 34 ff c7 3c e3 44 4c 3e 81 46 c7 3d 76 b9 27 3e
       0.024413683 0.19948153 0.097302444 0.16379341
000230 a8 50 1a 3e b9 8b 60 3e 20 2b 91 3e f0 52 3a 3e
       0.1506983 0.219283 0.28353214 0.181957
000240 e4 6d a7 bc eb 2c fa 3b c2 b7 92 bd ad be be 3b
       -0.020438142 0.007634749 -0.07163955 0.00582107
000250 9c 25 aa 3d d7 6a 9f bd 66 f0 4d 3c 5c 24 83 3c
       0.08307955 -0.0778405 0.0125695225 0.016008548
000260 16 8b fe bb 5f 30 d4 bd d6 a2 23 bd 5b f8 ec bd
       -0.007768045 -0.103607886 -0.039950214 -0.115708075
000270 ba 6c 30 bb 86 88 2f 3d 24 1b 06 be 7e a3 60 3d
       -0.0026920275 0.04285481 -0.13096291 0.05484342
000280 e1 6f 51 bd 98 d9 f4 bd 0b e6 a1 3d c2 2f 9c 3d
       -0.051132087 -0.11955565 0.07905205 0.076262966
000290 44 5a 13 3e 71 3d fc 3d a2 6b a3 bc 09 e5 5d 3c
       0.14389902 0.123164065 -0.019948784 0.013543376
0002a0 77 3e 38 3e e2 9e 05 3e 2d 6c 23 bb 9e f1 9f 3d
       0.17992578 0.1304889 -0.0024936304 0.07809757
0002b0 33 c6 37 bc a0 c1 05 bb 2b 8f c3 3d e0 98 44 3d
       -0.011216688 -0.00204096 0.095487915 0.047997355
0002c0 74 2d 25 3d 0e 01 f4 bc 17 75 51 3d a1 dc 57 bd
       0.04032655 -0.02978566 0.051137056 -0.052700642
0002d0 8c ab f7 ba 9c 42 5b bc ad bc da bd 9e 44 ba bd
       -0.001889573 -0.01338258 -0.10680518 -0.09095119
0002e0 8b 24 37 bd 23 21 f9 bd 65 a1 bb bd 9c 49 fb bd
       -0.044712584 -0.121645235 -0.09161643 -0.12269899
0002f0 89 1b b5 bd fa f0 a1 bd 48 4b 82 bd b1 fa 09 bd
       -0.088431425 -0.07907291 -0.06362015 -0.033686344
000300 46 ee 05 bc 0e e8 03 be ff 07 38 bc b9 3e 39 bd
       -0.008174485 -0.1288149 -0.011232375 -0.045225833
000310 20 41 9a 3d 0a cd 99 bc ac 0c 14 bd 55 d6 00 bd
       0.07531953 -0.018774528 -0.036144897 -0.031454403
000320 ad e0 76 bc a4 ad bf bb f6 3c 8e bd fb f5 64 bd
       -0.015068215 -0.005849557 -0.06945221 -0.055898648
000330 b6 f2 15 3d 12 44 18 3d 3f 0a 83 bd 98 92 fd bd
       0.03660842 0.037174292 -0.06398439 -0.12381476
000340 7a 24 9a bd 25 ca e5 bb 1f 34 a6 bc 59 82 c3 bd
       -0.075264886 -0.007012623 -0.020288525 -0.09546346
000350 83 88 68 3d 4e ff 4e 3d 27 1d 75 3c bd 89 a2 3d
       0.056770813 0.050536446 0.014960564 0.07936428
000360 e5 05 af bd 6a f3 bb bd ec 39 1a be ab 2a 92 bd
       -0.08546046 -0.09177287 -0.15061158 -0.071370445
000370 7f ef 29 bd 01 29 73 ba 2f 9d 86 be 75 68 db bd
       -0.041488167 -0.00092758244 -0.26291797 -0.10713283
000380 f5 49 60 bd 7b 2e 1f 3e ce 35 7b 3d ae df aa 3d
       -0.05475803 0.15545075 0.06133061 0.08343445
000390 df 0f f6 3d fa 8f 12 3e 15 28 94 bd 06 0d 41 3c
       0.12014746 0.14312735 -0.072342075 0.01178289
0003a0 20 86 39 3e 61 e3 dc 3d 3d 90 b2 3d b5 32 65 3d
       0.18117571 0.107855566 0.087189175 0.05595656
0003b0 41 b7 9b 3e 94 8e a4 3d 51 85 bd 3d 7a fe 24 3e
       0.3041325 0.08035007 0.09253944 0.161127
0003c0 c7 5f f4 3d 04 a9 10 3e 1d f4 05 3e c4 6e 0b bb
       0.119323306 0.14126974 0.13081403 -0.0021275738
0003d0 0b 07 4b 3d 93 1e 15 3e 6a 95 5e 38 84 17 f2 bc
       0.049567264 0.14562444 5.3068077e-05 -0.029552229
0003e0 d8 9f c2 bc 6d 64 28 bd 92 4b 0f bd 08 2e 11 be
       -0.02375786 -0.0411114 -0.03498418 -0.14177716
0003f0 41 db 07 be 0f 80 a5 3c 44 aa 21 3c 7b ad b4 3b
       -0.13267232 0.020202665 0.009867255 0.0055138445

G1.out_gate.bias f4 [16]
000000 67 71 c2 39 77 15 b0 3c d3 ee 6d bb 4c c0 89 bb
       0.00037087055 0.02149461 -0.003630568 -0.004203832
000010 ff 65 8e 3b d5 a7 90 ba 1e db fd bb 84 e1 40 bc
       0.004345655 -0.0011036346 -0.007747068 -0.011772517
000020 56 6d 98 bb 38 10 f3 bb 75 3f 03 3c 68 67 ae bb
       -0.0046517057 -0.007417705 0.008010735 -0.0053223856
000030 b0 b0 10 3b d1 77 0a 3b 31 a4 1c 3c 2f cf da 3c
       0.002207797 0.0021128545 0.009560631 0.026710121

R1.conv1.weight f4 [16, 16, 3, 3]
000000 d2 8e 16 be fb c6 95 bc 57 29 7e bd f0 8f c1 bd
       -0.14702919 -0.018283358 -0.062051143 -0.09451282
000010 cb fb ac bd 9a 0d f1 bd c2 10 88 bc 8b 75 d5 bd
       -0.08446463 -0.117701724 -0.016609553 -0.1042281
000020 c4 c6 89 bd a7 90 91 bd ff 76 fa bd 93 4e 88 bd
       -0.06727365 -0.07107668 -0.12229728 -0.06655612
000030 9f 74 4d bd 05 1a a6 bb 02 da 47 bd 96 80 75 bd
       -0.050160047 -0.0050690197 -0.048791893 -0.059937082
000040 7a 13 b3 bd f6 30 91 3c 6f f2 57 3e 3b 4a c6 3c
       -0.08743949 0.017723542 0.21088575 0.024205318
000050 d6 42 94 3c f2 53 3c 3e 44 a4 04 bc c1 2b 1c 3e
       0.018098276 0.18391398 -0.008095805 0.15251066
000060 ca c3 74 3d a9 37 7a bd 0f 79 04 3e 24 02 52 bd
       0.05975703 -0.061088238 0.12936805 -0.051271573
000070 e9 d0 91 bd f5 83 9b bd 22 60 58 bc 36 2a 70 bd
       -0.071199246 -0.07593528 -0.013206514 -0.058634005
000080 0a eb 46 bd 1b e5 46 bc 5c 4d e2 bc ed 7b 0d be
       -0.048563994 -0.012139584 -0.027624778 -0.13816805
000090 8f 15 ef bd 6c c7 cd 3d 52 b3 05 3d 8c 0b 9e bd
       -0.11674034 0.10047802 0.032641716 -0.07717046
0000a0 e4 f7 fe 3d 5b 21 0e 3d 1e 12 98 3c 82 b0 bc 3c
       0.12449625 0.03469978 0.018563326 0.023033384
0000b0 9f 97 78 3d 9f c7 82 3c 8c 3d 90 bd 61 15 8c bc
       0.060691472 0.015964327 -0.07042989 -0.017100038
0000c0 7b 31 84 bd 7f e6 2d be 08 c7 ae bd 49 52 54 bc
       -0.0645475 -0.16982459 -0.08534056 -0.012959071
0000d0 d6 86 0a be 75 50 20 be 47 55 87 bd 05 cb 90 bd
       -0.13527998 -0.15655692 -0.06608062 -0.07069973
0000e0 a8 73 b7 3c d0 f7 51 3d 33 19 82 3d b2 e8 48 bc
       0.022394016 0.051261723 0.063524626 -0.01226251
0000f0 45 9a 03 bc f0 b5 e4 bc 6d a2 23 3d 39 95 97 3e
       -0.008032386 -0.027918786 0.039949823 0.29606035
000100 9f 3e 96 3d 24 23 57 3d 6a ec 08 3e fd 28 4c bd
       0.07336163 0.052523747 0.13371435 -0.049843777
000110 44 ae 6f bc 1c e3 08 3e 05 34 95 bb 95 ba 02 be
       -0.0146289505 0.13367885 -0.0045533204 -0.12766488
000120 c4 39 06 3d 20 97 d2 3d df ff b4 3c 4b 44 fd 3d
       0.032769933 0.10282731 0.022094665 0.123665415
000130 5d 9a 11 3d 59 2a 3d 3c 0d 39 01 3d 84 65 bf bc
       0.035547603 0.011545741 0.03154855 -0.023363836
000140 db e4 d5 bd 01 b4 64 be 92 5f 00 3d 89 e3 19 3a
       -0.10444041 -0.22334291 0.031341143 0.0005870392
000150 84 8e 99 ba fd dc 1b 3e 1d d3 65 3d 00 8d 2a 3c
       -0.0011715447 0.15221019 0.056109536 0.010409594
000160 86 0b c6 3d b9 e1 80 3d 0e d2 63 3e bb a8 50 3c
       0.09670167 0.06293053 0.22248098 0.012735541
000170 6e 2a 84 3d b8 f0 a8 3d 77 c6 11 bc 57 46 14 3e
       0.06453405 0.082490385 -0.008897415 0.14479958
000180 fb 3e 7f 3d a9 bf 1a 3c 9b c0 fa 3d 93 52 53 3d
       0.062315922 0.009445109 0.12243768 0.05159242
000190 fb 47 05 3d 83 fe 60 be dd 01 ad 3d 5b df 41 3e
       0.03253935 -0.21972089 0.08447621 0.1893286
0001a0 22 29 e7 bd e8 c5 bc 3d f6 a1 ba 3d 79 5e 48 bd
       -0.11287142 0.09217435 0.09112923 -0.04891822
0001b0 b4 03 7a bb 5f ec 39 3d 78 26 22 3d 5d 03 86 bd
       -0.003814918 0.045391437 0.039587468 -0.0654361
0001c0 78 ce 5e bd a3 38 c8 bc 06 cc 13 be 3a 66 9f bd
       -0.054396123 -0.024441069 -0.14433298 -0.0778317
0001d0 2c 56 a9 bd 92 3e a2 3d 12 50 25 be 30 3b 95 3d
       -0.08268389 0.079220906 -0.16143826 0.0728668
0001e0 7e 57 94 3b 8b d8 5f be 8f 3c bb bd 12 87 ff 3c
       0.0045270314 -0.21859948 -0.0914241 0.031192336
0001f0 1a eb f1 bd ae 90 5d 3d 18 b9 04 be 80 3b db bd
       -0.1181242 0.054093055 -0.12961233 -0.10704708
000200 83 ce 9a bd 37 95 08 be 9c 6f ec 3d 54 b6 22 3d
       -0.0755892 -0.13338171 0.11544725 0.039724663
000210 11 ea 8f bd 54 cb b6 3d 4a 94 0c 3e 5a b5 83 bb
       -0.070270665 0.089255005 0.13728443 -0.0040194215
000220 6c 30 9f 3c a2 a6 e1 3d 37 90 7a bd 89 c5 27 bc
       0.019432269 0.11018111 -0.06117269 -0.010239967
000230 8c 5f 01 3e e9 ba 6a 3d f1 e4 04 3c e4 bc 1e 3c
       0.12634104 0.057307158 0.0081112245 0.00968859
000240 05 6c 27 3c d3 b8 8f bd 3a fa a7 bd fb e0 b3 bd
       0.010218625 -0.07017674 -0.08202024 -0.08783146
000250 d6 1b 12 bd 37 64 19 3d f7 37 a9 bc 63 15 26 3d
       -0.035671078 0.037449088 -0.020656569 0.04054774
000260 38 fa 96 ba 47 f6 09 bd 19 fd e3 3c 79 52 d3 bc
       -0.0011518663 -0.033682134 0.027830647 -0.025796162
000270 a3 aa 97 bd 3b e7 bd 3d 88 ac 52 3d 5a 63 f2 bd
       -0.07405593 0.09272619 0.05143407 -0.11835356
000280 f2 84 b2 3c ae c9 ca 38 bc 8f 9f 3d d1 b1 eb 3c
       0.021791909 9.6696764e-05 0.07791087 0.028771313
000290 d4 68 9d 3a 58 91 06 3d 3c e8 63 3d ae 1b a1 3d
       0.0012009391 0.032853454 0.055641398 0.078666076
0002a0 18 0f 7f 3c 79 f5 43 3d f0 cb 8c 3d 97 99 5a 3c
       0.0155675635 0.047841523 0.068748355 0.013342283
0002b0 b1 4f d7 bd 73 11 97 bd 28 d8 e9 bb 20 f9 c5 3a
       -0.10513247 -0.07376375 -0.0071363635 0.0015104152
0002c0 22 2c 19 be 5d d4 5b bd c5 a2 a9 bd 61 e0 98 bc
       -0.14958242 -0.053669322 -0.08282999 -0.01866168
0002d0 c1 bd 3a bd 18 27 ac 3c a7 c7 72 3d 58 94 45 bd
       -0.04559112 0.021014735 0.059272435 -0.048237175
0002e0 c3 36 36 bd ae e9 16 3d 85 4b 94 3a f5 71 60 bd
       -0.04448582 0.036843948 0.001131401 -0.054796178
0002f0 40 77 e6 bd 8e b7 70 bd f4 35 49 bd d2 b3 ab bc
       -0.11253214 -0.0587688 -0.04912372 -0.020959768
000300 dc a1 68 bd 55 e3 01 be 46 c1 8c bd 40 af 03 bd
       -0.056794986 -0.12684377 -0.068728015 -0.032149553
000310 4d 1c f7 3c 7d 21 a6 bd 7f aa c4 3d 64 19 25 3c
       0.030164862 -0.08111856 0.09602832 0.010076854
000320 a6 e6 57 3c dd f2 84 bc 7a 48 89 3d 5c eb e6 bc
       0.0131775495 -0.016229087 0.06703277 -0.0281884
000330 aa 14 a1 3c 9f fd a8 3c 2d 79 08 bd 1c 03 d5 3c
       0.019663174 0.020628748 -0.033318687 0.02600246
000340 ce 68 32 be 65 cc 70 be 37 75 30 bd e7 ad 16 bd
       -0.17422792 -0.2351547 -0.043080535 -0.03678694
000350 ab 34 28 be 48 9f b1 3d 8c 54 93 bd 67 68 a3 bd
       -0.16426341 0.086729586 -0.071938604 -0.079788975
000360 bc 89 10 be 2a 04 54 be 5e 10 e1 bd b1 9b bc bd
       -0.14115041 -0.20704713 -0.1098945 -0.09209383
000370 ec ff 25 bd b4 e1 99 3c c4 c1 eb 3d 52 14 a1 3d
       -0.04052727 0.018784381 0.11511567 0.07865204
000380 a8 dc c4 ba 7b f3 02 be cc e2 8c bd b0 bd 0a 3d
       -0.0015019374 -0.12788193 -0.068791956 0.033872306
000390 19 ef 24 bd e7 46 a1 3b f3 c2 78 3c 53 71 b8 bd
       -0.040267084 0.0049217823 0.015183198 -0.0900599
0003a0 f8 b2 61 3c be 6e ad bd b3 1b 0c 3c fb 27 fb bb
       0.01377558 -0.08468388 0.008551526 -0.007664678
0003b0 b5 ac f0 bc 6e 1f d4 3d 47 90 6f 3c 7e 4d a5 3d
       -0.029379228 0.10357557 0.014621801 0.08071421
0003c0 2c fc 50 3d 5c 13 49 bc 61 e4 a5 3e 82 3a cd bd
       0.05102174 -0.012272682 0.32400802 -0.10020925
0003d0 b6 76 f4 3d 30 33 03 3e e9 64 09 be cc c6 79 bd
       0.11936705 0.12812495 -0.134174 -0.060980603
0003e0 d8 0d 2e 3d 17 46 fd bc 82 83 6c bb 36 1c c7 bb
       0.04249367 -0.03091721 -0.0036089127 -0.006076361
0003f0 32 24 56 bc df fc 0c 3c 2d a1 d3 3d c5 2e 85 38
       -0.013070153 0.008605211 0.10333476 6.350646e-05

R1.conv1.bias f4 [16]
000000 5f 21 b1 3d 7f 1a 9f 3d 6d 88 15 bd f8 c4 86 bc
       0.08648943 0.077687256 -0.03650706 -0.016451344
000010 5b f4 6d bc fb c3 0a 3e 09 b5 ad 3d 55 38 18 3d
       -0.014523591 0.13551323 0.08481795 0.037163097
000020 54 1e cd bd 65 f6 a5 3d ac 23 cf 3d f6 51 d3 3d
       -0.1001555 0.08103637 0.10114226 0.10318367
000030 bc 69 a5 3d 25 53 2d 3d 6e 5f d5 3d 09 d0 41 bc
       0.08076808 0.04231562 0.104185924 -0.011829385

R1.conv2.weight f4 [16, 16, 3, 3]
000000 cd 2b 2b bd e1 e6 af bd a9 68 99 bd 31 8b ba bc
       -0.04178982 -0.085889585 -0.074906655 -0.02277145
000010 38 5f 7a 3d 1c e8 76 bd 1e 71 d3 bc 25 10 f4 bc
       0.061125964 -0.06027995 -0.025810774 -0.029792855
000020 42 82 a7 bd 14 31 f4 bd a7 13 55 bc 75 0a 9f bd
       -0.081791416 -0.119234234 -0.013005174 -0.077656664
000030 6d 9e 7a 3c a8 3e d4 3b e8 8d 2e bc 27 02 a4 3a
       0.015296561 0.006477196 -0.01065395 0.0012512848
000040 65 c1 8e bd 0a 8c a6 bb 23 db ca 3a 85 e1 91 3d
       -0.06970481 -0.005082612 0.0015476685 0.071230926
000050 61 b6 03 3e 39 6b 34 3d df 1d 0e 3e da 57 91 3d
       0.12862541 0.044047568 0.13878582 0.070968345
000060 27 1e 33 3d 0c be d3 3d e8 9e 3f 3d fb 48 d3 bb
       0.043729927 0.10338983 0.046782404 -0.006447909
000070 8f 9c ea 3c f8 98 e5 3d 0d a2 54 bd c2 25 d4 bc
       0.028639106 0.11210817 -0.051912356 -0.02589691
000080 fb dc be 3c 94 09 ab bd b3 54 b7 bd 6d 20 7d 3d
       0.023298731 -0.08351436 -0.08951702 0.0617985
000090 d6 2c 19 bd 6b ab 54 bc 46 50 be bc 42 b6 9c bd
       -0.037396275 -0.012980322 -0.023231637 -0.076519504
0000a0 58 a7 a9 3c 60 1c 05 3c af 18 91 bd 19 3c df bc
       0.020709679 0.008124441 -0.07084786 -0.027250336
0000b0 72 b2 e2 3c 89 1b e9 3c 9f ed ba bd 16 15 6c bd
       0.02767298 0.028455513 -0.09127354 -0.057637297
0000c0 d9 77 cb 3d ea f0 96 3d 64 a5 bf bd a4 f5 0d 3e
       0.099349685 0.073701695 -0.09357718 0.13863236
0000d0 e7 e4 a9 3d fc 81 83 bd 3f 4b 8c 3d 46 46 54 3d
       0.08295613 -0.06421277 0.068502896 0.05182483
0000e0 ca 17 73 3c 31 ae ab bc b0 48 0d 3d 19 92 66 3d
       0.014837215 -0.020957084 0.03449315 0.056291673
0000f0 79 30 92 3c dd 86 0b bd 4b a9 07 3e c3 f6 3b 3d
       0.01784538 -0.034064163 0.13248174 0.045889627
000100 8c a5 4c 3c d2 83 10 3e 77 32 5f 3d 03 8a 4e 3c
       0.012490641 0.14112785 0.054491486 0.012606147
000110 b2 a5 1e 3d 51 56 c3 3d 06 e4 db bc 66 b4 a1 3d
       0.038732238 0.09537948 -0.026842128 0.078957364
000120 64 c9 ef 3d 9e c6 89 3c 26 64 d4 3d 26 e5 73 bc
       0.11708334 0.01681834 0.10370664 -0.014886176
000130 37 0d 55 3d 28 c0 3e 3d d7 f8 eb ba 39 50 98 3d
       0.052014556 0.046569973 -0.0018003237 0.07437176
000140 13 dc c6 3d 63 8e 1a 3e 5c 17 13 3e d0 c1 ba 3c
       0.097099446 0.15093379 0.1436438 0.022797495
000150 7e a5 bc 3d 84 f5 e0 3c d2 4b e7 3c 54 4a 94 3c
       0.09211253 0.027460821 0.028234396 0.018101849
000160 76 2e c8 3d 77 09 22 3d 5d ad 98 bd 08 a8 78 3d
       0.09774487 0.039559808 -0.074549414 0.060707122
000170 a3 58 a8 3c ae ca 32 3e ae 6e 4c 3c 30 be 06 3e
       0.020550078 0.17460129 0.01247756 0.13158488
000180 75 2d dd 3d 2e 63 24 3e 61 06 2a 3e 1d 3b 0c 3d
       0.10799686 0.16053459 0.16603996 0.034236062
000190 9e 76 b5 bd 98 19 eb bd 75 48 45 3c 07 27 b2 bc
       -0.08860515 -0.11479491 0.012041201 -0.021747125
0001a0 63 df 49 bb f6 f8 a9 bd 10 1d d3 bc a5 b1 19 be
       -0.0030803315 -0.08299439 -0.025770694 -0.15009172
0001b0 40 24 9b bc 87 b8 8f 3d 3d 59 3f 3d 3c 03 b7 3d
       -0.018938184 0.07017618 0.046715964 0.08936164
0001c0 fc e2 09 3e d0 b3 07 3e 9c 5b 99 3d 3d 6e 26 3e
       0.13465494 0.13252187 0.07488176 0.1625299
0001d0 b7 85 a3 3e ab 92 13 bd e6 ba 22 bd 38 f7 86 bd
       0.31937954 -0.036028545 -0.03972902 -0.06590122
0001e0 49 f2 9d bc 1f f6 48 bb 00 13 48 3c b2 c7 31 be
       -0.01928057 -0.0030664278 0.012211561 -0.17361334
0001f0 c9 14 c8 bd 1b 67 f4 bd d7 f9 e7 bc db 64 8f 3d
       -0.097695895 -0.11933728 -0.028317375 0.070016585
000200 12 62 5d 3d 6b aa a0 3b 8b e9 2a bd fb 3f c3 3c
       0.054048605 0.004903128 -0.04172663 0.02383422
000210 05 7a a6 3d c8 91 f5 3d fb e5 37 3d 51 c7 a6 bd
       0.08128742 0.11990696 0.04489706 -0.08143485
000220 c3 a3 c4 3d dc d8 78 3d dd e2 80 bd 0a 7b ac 3b
       0.096015476 0.06075369 -0.06293271 0.005263691
000230 45 42 1c 3d 6f 20 11 be c2 04 1b 3d 0d 86 69 3d
       0.038149137 -0.14172529 0.037846334 0.057012606
000240 03 71 90 be 60 15 c8 bd 57 ff 9a bc c5 24 3a be
       -0.2821122 -0.09769702 -0.018920584 -0.18178089
000250 a0 92 5f bd b3 68 df 3d 8b 5f 25 3d 5e 17 16 bd
       -0.054583192 0.10908642 0.04037432 -0.03664338
000260 8a 4c 21 3e e6 f1 57 bd 40 2c 44 bd 52 13 66 bd
       0.15751854 -0.052720927 -0.047893763 -0.05617077
000270 08 e3 a2 bb c5 86 75 bd 88 ce d2 3c ed 6f 14 3e
       -0.004970912 -0.05994298 0.025733247 0.14495821
000280 c5 18 ba 3d 40 15 8f 3d 48 d1 ed 3c ae 8f db 3d
       0.09086756 0.06986475 0.029030457 0.10720764
000290 f0 8d 1b 3e bc 04 0a 3e f2 f4 62 3d af f5 81 bd
       0.15190864 0.13478369 0.05540938 -0.063456886
0002a0 d0 25 15 3e ea ac 43 3d 02 28 b8 3d 12 cc d4 bd
       0.14565206 0.047772326 0.08992006 -0.10390486
0002b0 34 38 95 bc 40 51 d2 bd 30 80 ec 3a c9 9e c5 bd
       -0.018215276 -0.102694035 0.0018043574 -0.096494265
0002c0 d3 cd 9d bd 4b 56 3f 3d fd e1 0f 3e f0 90 0d 3e
       -0.077052735 0.046713155 0.14051051 0.1382482
0002d0 5e 60 f0 3c 6d 0d c7 bc 22 27 53 bc d1 f2 04 3d
       0.029342826 -0.024298394 -0.012887748 0.03245813
0002e0 51 5f 1f bd fa 16 31 bd ee 29 e1 bc 2e 50 aa 3b
       -0.03890926 -0.043234803 -0.027485814 0.0051975464
0002f0 02 72 e8 3d 3c cb fa 3b 8d d4 5b 3c 8e 08 66 bc
       0.1134987 0.007653622 0.013417375 -0.0140401255
000300 d2 2b 3e bd 8e fa b1 bd 19 fd 82 bd e1 97 eb bd
       -0.04642851 -0.08690368 -0.06395931 -0.11503578
000310 db 21 2f bd 9c b2 0c be bd 4a f5 bc 80 c8 2d bc
       -0.042756896 -0.13740009 -0.029942865 -0.010606885
000320 2a a9 a7 bb 77 53 50 bd 47 c8 3a 3d 30 eb 95 3d
       -0.0051166015 -0.05086085 0.045601156 0.07320249
000330 36 0f d9 3c 1c eb c6 3d 22 39 0f 3e 4e b1 e6 bc
       0.026496511 0.09712812 0.13986638 -0.028160717
000340 89 fe fa 3b d1 f4 d2 3c d9 04 a8 3c 4f 87 11 3a
       0.0076597375 0.025751503 0.020510124 0.00055514736
000350 af 89 ca 3d 19 07 ad 3d 21 a7 8f 3c c5 b7 10 3e
       0.09889542 0.084486194 0.017535748 0.14132603
000360 d2 d8 9d bd 77 24 56 bd f8 27 5a 3d ea 29 e5 bd
       -0.07707371 -0.05228087 0.053260773 -0.11189635
000370 a0 ae 8a bd dd f1 81 3d 98 41 c9 3d 42 73 fa 3d
       -0.06771588 0.0634496 0.09826964 0.12229015
000380 26 96 f6 3d a5 d9 09 be c7 41 f6 bd 02 f9 a7 bd
       0.12040357 -0.13461931 -0.12024265 -0.08201791
000390 58 b0 15 be c6 5a d4 bd b6 5b 99 bd eb 26 09 be
       -0.14618051 -0.10368876 -0.074881956 -0.13393752
0003a0 13 fa 24 bd 0f 38 c2 bd f5 ab c7 3c 57 ed 2d 3e
       -0.04027755 -0.094833486 0.024373988 0.16985069
0003b0 62 19 67 3d 15 fd 7a 3d 35 85 92 3e c3 0e 40 3e
       0.05642069 0.061276514 0.28617254 0.18755631
0003c0 f6 1a 93 3e f5 04 5c 3e 58 cd 01 3e 21 1d fc 3c
       0.28731507 0.21486266 0.12675989 0.030775608
0003d0 68 13 c7 3c b8 81 a4 3b e0 0b 8f 3b fd d9 28 bd
       0.024301246 0.0050203465 0.0043654293 -0.041223515
0003e0 c9 04 a1 3a 40 0d 25 bd cf f7 c5 bc 0b e5 e9 3d
       0.0012284751 -0.04029584 -0.024166016 0.114206396
0003f0 9c 31 14 3e 02 2d 53 3e c9 c0 ad 3e 37 a5 d7 3c
       0.1447205 0.20622638 0.33936146 0.026323898

R1.conv2.bias f4 [16]
000000 ce c2 62 bb c8 e7 6d 3c c5 c8 c1 3c 64 b8 d6 3d
       -0.0034600976 0.014520593 0.023655305 0.104843885
000010 5a aa 13 bd 99 cc c2 3d dd 72 16 ba 0f 06 a2 3c
       -0.03605113 0.0951168 -0.0005739162 0.01977828
000020 cf f6 29 3d ff 0f b1 3d c5 d6 c9 3d 02 d8 60 3d
       0.04149514 0.08645629 0.09855417 0.0548935
000030 3c 9e 0e 3d 48 cc 59 bd d0 2a 75 bc 7a 01 ff bc
       0.034818873 -0.053173333 -0.014963821 -0.031128634
